…
2024-05-19 13:49:28,564 INFO: Dataset [PairedImageDataset] - BSD100 is built.
2024-05-19 13:49:28,564 INFO: Number of test images in BSD100: 100
2024-05-19 13:49:28,611 INFO: Dataset [PairedImageDataset] - Urban100 is built.
2024-05-19 13:49:28,611 INFO: Number of test images in Urban100: 100
2024-05-19 13:49:28,628 INFO: Dataset [PairedImageDataset] - Manga109 is built.
2024-05-19 13:49:28,628 INFO: Number of test images in Manga109: 109
2024-05-19 13:49:33,946 INFO: Network [ATD] is created.
2024-05-19 13:49:49,324 INFO: Network: ATD, with parameters: 20,113,217
2024-05-19 13:49:49,324 INFO: ATD(
  (conv_first): Conv2d(3, 210, kernel_size=(3, 3), stride=(1, 1), padding=(1, 1))
  (patch_embed): PatchEmbed(
    (norm): LayerNorm((210,), eps=1e-05, elementwise_affine=True)
  )
  (patch_unembed): PatchUnEmbed()
  (layers): ModuleList(
    (0-5): 6 x ATDB(
      (patch_embed): PatchEmbed()
      (patch_unembed): PatchUnEmbed()
      (residual_group): BasicBlock(
        dim=210, input_resolution=(64, 64), depth=6
        (layers): ModuleList(
          (0-4): 5 x ATDTransformerLayer(
            (softmax): Softmax(dim=-1)
            (lrelu): LeakyReLU(negative_slope=0.01)
            (sigmoid): Sigmoid()
            (norm1): LayerNorm((210,), eps=1e-05, elementwise_affine=True)
            (norm2): LayerNorm((210,), eps=1e-05, elementwise_affine=True)
            (norm3): InstanceNorm1d(128, eps=1e-05, momentum=0.1, affine=True, track_running_stats=False)
            (wqkv): Linear(in_features=210, out_features=630, bias=True)
            (attn_win): WindowAttention(
              dim=210, window_size=(16, 16), num_heads=6, qkv_bias=True
              (proj): Linear(in_features=210, out_features=210, bias=True)
              (softmax): Softmax(dim=-1)
            )
            (attn_atd): ATD_CA(
              (wq): Linear(in_features=210, out_features=20, bias=True)
              (wk): Linear(in_features=210, out_features=20, bias=True)
              (wv): Linear(in_features=210, out_features=210, bias=True)
              (softmax): Softmax(dim=-1)
            )
            (attn_aca): AC_MSA(
              (proj): Linear(in_features=210, out_features=210, bias=True)
              (softmax): Softmax(dim=-1)
            )
            (convffn): ConvFFN(
              (fc1): Linear(in_features=210, out_features=420, bias=True)
              (act): GELU(approximate='none')
              (dwconv): dwconv(
                (depthwise_conv): Sequential(
                  (0): Conv2d(420, 420, kernel_size=(5, 5), stride=(1, 1), padding=(2, 2), groups=420)
                  (1): GELU(approximate='none')
                )
              )
              (fc2): Linear(in_features=420, out_features=210, bias=True)
            )
          )
          (5): ATDTransformerLayer(
            (softmax): Softmax(dim=-1)
            (lrelu): LeakyReLU(negative_slope=0.01)
            (sigmoid): Sigmoid()
            (norm1): LayerNorm((210,), eps=1e-05, elementwise_affine=True)
            (norm2): LayerNorm((210,), eps=1e-05, elementwise_affine=True)
            (wqkv): Linear(in_features=210, out_features=630, bias=True)
            (attn_win): WindowAttention(
              dim=210, window_size=(16, 16), num_heads=6, qkv_bias=True
              (proj): Linear(in_features=210, out_features=210, bias=True)
              (softmax): Softmax(dim=-1)
            )
            (attn_atd): ATD_CA(
              (wq): Linear(in_features=210, out_features=20, bias=True)
              (wk): Linear(in_features=210, out_features=20, bias=True)
              (wv): Linear(in_features=210, out_features=210, bias=True)
              (softmax): Softmax(dim=-1)
            )
            (attn_aca): AC_MSA(
              (proj): Linear(in_features=210, out_features=210, bias=True)
              (softmax): Softmax(dim=-1)
            )
            (convffn): ConvFFN(
              (fc1): Linear(in_features=210, out_features=420, bias=True)
              (act): GELU(approximate='none')
              (dwconv): dwconv(
                (depthwise_conv): Sequential(
                  (0): Conv2d(420, 420, kernel_size=(5, 5), stride=(1, 1), padding=(2, 2), groups=420)
                  (1): GELU(approximate='none')
                )
              )
              (fc2): Linear(in_features=420, out_features=210, bias=True)
            )
          )
        )
      )
      (conv): Conv2d(210, 210, kernel_size=(3, 3), stride=(1, 1), padding=(1, 1))
    )
  )
  (norm): LayerNorm((210,), eps=1e-05, elementwise_affine=True)
  (conv_after_body): Conv2d(210, 210, kernel_size=(3, 3), stride=(1, 1), padding=(1, 1))
  (conv_before_upsample): Sequential(
    (0): Conv2d(210, 64, kernel_size=(3, 3), stride=(1, 1), padding=(1, 1))
    (1): LeakyReLU(negative_slope=0.01, inplace=True)
  )
  (upsample): Upsample(
    (0): Conv2d(64, 256, kernel_size=(3, 3), stride=(1, 1), padding=(1, 1))
    (1): PixelShuffle(upscale_factor=2)
  )
  (conv_last): Conv2d(64, 3, kernel_size=(3, 3), stride=(1, 1), padding=(1, 1))
)
2024-05-19 13:49:55,372 INFO: Loading ATD model from experiments/pretrained_models/001_ATD_SRx2_finetune.pth, with param key: [params_ema].
2024-05-19 13:49:56,897 INFO: Model [ATDModel] is created.
2024-05-19 13:49:56,897 INFO: Testing Set5...
2024-05-19 13:50:33,660 INFO: Validation Set5
	 # psnr: 38.6115	Best: 38.6115 @ 001_ATD_SRx2_finetune iter
…
