…
    log: /home/user/projects_sr/Adaptive-Token-Dictionary/results/003_office_ATD_x4_finetune
    visualization: /home/user/projects_sr/Adaptive-Token-Dictionary/results/003_office_ATD_x4_finetune/visualization
  ]
  val:[
    save_img: True
    suffix: None
  ]
  dist: False
  rank: 0
  world_size: 1
  auto_resume: False
  is_train: False

2024-06-09 14:46:19,315 INFO: Dataset [SingleImageDataset] - launch is built.
2024-06-09 14:46:19,315 INFO: Number of test images in launch: 2
2024-06-09 14:46:19,710 INFO: Network [ATD] is created.
2024-06-09 14:46:20,409 INFO: Network: ATD, with parameters: 20,260,929
2024-06-09 14:46:20,409 INFO: ATD(
  (conv_first): Conv2d(3, 210, kernel_size=(3, 3), stride=(1, 1), padding=(1, 1))
  (patch_embed): PatchEmbed(
    (norm): LayerNorm((210,), eps=1e-05, elementwise_affine=True)
  )
  (patch_unembed): PatchUnEmbed()
  (layers): ModuleList(
    (0-5): 6 x ATDB(
      (patch_embed): PatchEmbed()
      (patch_unembed): PatchUnEmbed()
      (residual_group): BasicBlock(
        dim=210, input_resolution=(64, 64), depth=6
        (layers): ModuleList(
          (0-4): 5 x ATDTransformerLayer(
            (softmax): Softmax(dim=-1)
            (lrelu): LeakyReLU(negative_slope=0.01)
            (sigmoid): Sigmoid()
            (norm1): LayerNorm((210,), eps=1e-05, elementwise_affine=True)
            (norm2): LayerNorm((210,), eps=1e-05, elementwise_affine=True)
            (norm3): InstanceNorm1d(128, eps=1e-05, momentum=0.1, affine=True, track_running_stats=False)
            (wqkv): Linear(in_features=210, out_features=630, bias=True)
            (attn_win): WindowAttention(
              dim=210, window_size=(16, 16), num_heads=6, qkv_bias=True
              (proj): Linear(in_features=210, out_features=210, bias=True)
              (softmax): Softmax(dim=-1)
            )
            (attn_atd): ATD_CA(
              (wq): Linear(in_features=210, out_features=20, bias=True)
              (wk): Linear(in_features=210, out_features=20, bias=True)
              (wv): Linear(in_features=210, out_features=210, bias=True)
              (softmax): Softmax(dim=-1)
            )
            (attn_aca): AC_MSA(
              (proj): Linear(in_features=210, out_features=210, bias=True)
              (softmax): Softmax(dim=-1)
            )
            (convffn): ConvFFN(
              (fc1): Linear(in_features=210, out_features=420, bias=True)
              (act): GELU(approximate='none')
              (dwconv): dwconv(
                (depthwise_conv): Sequential(
                  (0): Conv2d(420, 420, kernel_size=(5, 5), stride=(1, 1), padding=(2, 2), groups=420)
                  (1): GELU(approximate='none')
                )
              )
              (fc2): Linear(in_features=420, out_features=210, bias=True)
            )
          )
          (5): ATDTransformerLayer(
            (softmax): Softmax(dim=-1)
            (lrelu): LeakyReLU(negative_slope=0.01)
            (sigmoid): Sigmoid()
            (norm1): LayerNorm((210,), eps=1e-05, elementwise_affine=True)
            (norm2): LayerNorm((210,), eps=1e-05, elementwise_affine=True)
            (wqkv): Linear(in_features=210, out_features=630, bias=True)
            (attn_win): WindowAttention(
              dim=210, window_size=(16, 16), num_heads=6, qkv_bias=True
              (proj): Linear(in_features=210, out_features=210, bias=True)
              (softmax): Softmax(dim=-1)
            )
            (attn_atd): ATD_CA(
              (wq): Linear(in_features=210, out_features=20, bias=True)
              (wk): Linear(in_features=210, out_features=20, bias=True)
              (wv): Linear(in_features=210, out_features=210, bias=True)
              (softmax): Softmax(dim=-1)
            )
            (attn_aca): AC_MSA(
              (proj): Linear(in_features=210, out_features=210, bias=True)
              (softmax): Softmax(dim=-1)
            )
            (convffn): ConvFFN(
              (fc1): Linear(in_features=210, out_features=420, bias=True)
              (act): GELU(approximate='none')
              (dwconv): dwconv(
                (depthwise_conv): Sequential(
                  (0): Conv2d(420, 420, kernel_size=(5, 5), stride=(1, 1), padding=(2, 2), groups=420)
                  (1): GELU(approximate='none')
                )
              )
              (fc2): Linear(in_features=420, out_features=210, bias=True)
            )
          )
        )
      )
      (conv): Conv2d(210, 210, kernel_size=(3, 3), stride=(1, 1), padding=(1, 1))
    )
  )
  (norm): LayerNorm((210,), eps=1e-05, elementwise_affine=True)
  (conv_after_body): Conv2d(210, 210, kernel_size=(3, 3), stride=(1, 1), padding=(1, 1))
  (conv_before_upsample): Sequential(
    (0): Conv2d(210, 64, kernel_size=(3, 3), stride=(1, 1), padding=(1, 1))
    (1): LeakyReLU(negative_slope=0.01, inplace=True)
  )
  (upsample): Upsample(
    (0): Conv2d(64, 256, kernel_size=(3, 3), stride=(1, 1), padding=(1, 1))
    (1): PixelShuffle(upscale_factor=2)
    (2): Conv2d(64, 256, kernel_size=(3, 3), stride=(1, 1), padding=(1, 1))
    (3): PixelShuffle(upscale_factor=2)
  )
  (conv_last): Conv2d(64, 3, kernel_size=(3, 3), stride=(1, 1), padding=(1, 1))
)
2024-06-09 14:46:20,556 INFO: Loading ATD model from experiments/pretrained_models/003_ATD_SRx4_finetune.pth, with param key: [params_ema].
2024-06-09 14:46:20,665 INFO: Model [ATDModel] is created.
2024-06-09 14:46:20,665 INFO: Testing launch...
