…
2024-05-17 16:22:05,268 INFO: Dataset [PairedImageDataset] - BSD100 is built.
2024-05-17 16:22:05,268 INFO: Number of test images in BSD100: 100
2024-05-17 16:22:05,277 INFO: Dataset [PairedImageDataset] - Urban100 is built.
2024-05-17 16:22:05,277 INFO: Number of test images in Urban100: 100
2024-05-17 16:22:05,284 INFO: Dataset [PairedImageDataset] - Manga109 is built.
2024-05-17 16:22:05,284 INFO: Number of test images in Manga109: 109
2024-05-17 16:22:06,008 INFO: Network [ATD] is created.
2024-05-17 16:22:07,596 INFO: Network: ATD, with parameters: 753,204
2024-05-17 16:22:07,596 INFO: ATD(
  (conv_first): Conv2d(3, 48, kernel_size=(3, 3), stride=(1, 1), padding=(1, 1))
  (patch_embed): PatchEmbed(
    (norm): LayerNorm((48,), eps=1e-05, elementwise_affine=True)
  )
  (patch_unembed): PatchUnEmbed()
  (layers): ModuleList(
    (0-3): 4 x ATDB(
      (patch_embed): PatchEmbed()
      (patch_unembed): PatchUnEmbed()
      (residual_group): BasicBlock(
        dim=48, input_resolution=(64, 64), depth=6
        (layers): ModuleList(
          (0-4): 5 x ATDTransformerLayer(
            (softmax): Softmax(dim=-1)
            (lrelu): LeakyReLU(negative_slope=0.01)
            (sigmoid): Sigmoid()
            (norm1): LayerNorm((48,), eps=1e-05, elementwise_affine=True)
            (norm2): LayerNorm((48,), eps=1e-05, elementwise_affine=True)
            (norm3): InstanceNorm1d(64, eps=1e-05, momentum=0.1, affine=True, track_running_stats=False)
            (wqkv): Linear(in_features=48, out_features=144, bias=True)
            (attn_win): WindowAttention(
              dim=48, window_size=(16, 16), num_heads=4, qkv_bias=True
              (proj): Linear(in_features=48, out_features=48, bias=True)
              (softmax): Softmax(dim=-1)
            )
            (attn_atd): ATD_CA(
              (wq): Linear(in_features=48, out_features=8, bias=True)
              (wk): Linear(in_features=48, out_features=8, bias=True)
              (wv): Linear(in_features=48, out_features=48, bias=True)
              (softmax): Softmax(dim=-1)
            )
            (attn_aca): AC_MSA(
              (proj): Linear(in_features=48, out_features=48, bias=True)
              (softmax): Softmax(dim=-1)
            )
            (convffn): ConvFFN(
              (fc1): Linear(in_features=48, out_features=48, bias=True)
              (act): GELU(approximate='none')
              (dwconv): dwconv(
                (depthwise_conv): Sequential(
                  (0): Conv2d(48, 48, kernel_size=(7, 7), stride=(1, 1), padding=(3, 3), groups=48)
                  (1): GELU(approximate='none')
                )
              )
              (fc2): Linear(in_features=48, out_features=48, bias=True)
            )
          )
          (5): ATDTransformerLayer(
            (softmax): Softmax(dim=-1)
            (lrelu): LeakyReLU(negative_slope=0.01)
            (sigmoid): Sigmoid()
            (norm1): LayerNorm((48,), eps=1e-05, elementwise_affine=True)
            (norm2): LayerNorm((48,), eps=1e-05, elementwise_affine=True)
            (wqkv): Linear(in_features=48, out_features=144, bias=True)
            (attn_win): WindowAttention(
              dim=48, window_size=(16, 16), num_heads=4, qkv_bias=True
              (proj): Linear(in_features=48, out_features=48, bias=True)
              (softmax): Softmax(dim=-1)
            )
            (attn_atd): ATD_CA(
              (wq): Linear(in_features=48, out_features=8, bias=True)
              (wk): Linear(in_features=48, out_features=8, bias=True)
              (wv): Linear(in_features=48, out_features=48, bias=True)
              (softmax): Softmax(dim=-1)
            )
            (attn_aca): AC_MSA(
              (proj): Linear(in_features=48, out_features=48, bias=True)
              (softmax): Softmax(dim=-1)
            )
            (convffn): ConvFFN(
              (fc1): Linear(in_features=48, out_features=48, bias=True)
              (act): GELU(approximate='none')
              (dwconv): dwconv(
                (depthwise_conv): Sequential(
                  (0): Conv2d(48, 48, kernel_size=(7, 7), stride=(1, 1), padding=(3, 3), groups=48)
                  (1): GELU(approximate='none')
                )
              )
              (fc2): Linear(in_features=48, out_features=48, bias=True)
            )
          )
        )
      )
      (conv): Conv2d(48, 48, kernel_size=(3, 3), stride=(1, 1), padding=(1, 1))
    )
  )
  (norm): LayerNorm((48,), eps=1e-05, elementwise_affine=True)
  (conv_after_body): Conv2d(48, 48, kernel_size=(3, 3), stride=(1, 1), padding=(1, 1))
  (upsample): UpsampleOneStep(
    (0): Conv2d(48, 12, kernel_size=(3, 3), stride=(1, 1), padding=(1, 1))
    (1): PixelShuffle(upscale_factor=2)
  )
)
2024-05-17 16:22:08,165 INFO: Loading ATD model from experiments/pretrained_models/101_ATD_light_SRx2_scratch.pth, with param key: [params_ema].
2024-05-17 16:22:08,355 INFO: Model [ATDModel] is created.
2024-05-17 16:22:08,356 INFO: Testing Set5...
2024-05-17 16:22:13,039 INFO: Validation Set5
…
